…
                   filters=NF,resblock1=NR1,
                   r_filters=NFL, resblock2=NR2,
                   dil_mode=DIL_MODE, 
                   sp_dropout=DR1,re_dropout=DR2,
                   mask_float=True,
                   attention='wst',
                   mask_threshold=0.5,                                         
                   return_seq=True)
        
    model.compile(optimizer=Adam(), 
                      loss=tf.keras.losses.CategoricalCrossentropy(), 
                      metrics=[tf.keras.metrics.CategoricalAccuracy()])

model.summary()

Model: Dual_Res-CR-Net_Att_WST
input_1 (InputLayer)            [(None, 300, 340, 1) 0

up_sampling2d (UpSampling2D)    (None, 1200, 1360, 1 0           input_1[0][0]

lambda (Lambda)                 (None, 1200, 1360)   0           up_sampling2d[0][0]

scattering2d (Scattering2D)     (None, 49, 300, 340) 0           lambda[0][0]

tf_op_layer_transpose (TensorFl [(None, 300, 340, 49 0           scattering2d[0][0]

separable_conv2d (SeparableConv (None, 300, 340, 16) 1241        tf_op_layer_transpose[0][0]

separable_conv2d_2 (SeparableCo (None, 300, 340, 16) 2025        tf_op_layer_transpose[0][0]

separable_conv2d_4 (SeparableCo (None, 300, 340, 16) 3201        tf_op_layer_transpose[0][0]

batch_normalization (BatchNorma (None, 300, 340, 16) 64          separable_conv2d[0][0]

batch_normalization_1 (BatchNor (None, 300, 340, 16) 64          separable_conv2d_2[0][0]

batch_normalization_2 (BatchNor (None, 300, 340, 16) 64          separable_conv2d_4[0][0]

leaky_re_lu (LeakyReLU)         (None, 300, 340, 16) 0           batch_normalization[0][0]

leaky_re_lu_1 (LeakyReLU)       (None, 300, 340, 16) 0           batch_normalization_1[0][0]

leaky_re_lu_2 (LeakyReLU)       (None, 300, 340, 16) 0           batch_normalization_2[0][0]

conv2d (Conv2D)                 (None, 300, 340, 48) 2400        tf_op_layer_transpose[0][0]

separable_conv2d_1 (SeparableCo (None, 300, 340, 16) 416         leaky_re_lu[0][0]

separable_conv2d_3 (SeparableCo (None, 300, 340, 16) 672         leaky_re_lu_1[0][0]

separable_conv2d_5 (SeparableCo (None, 300, 340, 16) 1056        leaky_re_lu_2[0][0]

batch_normalization_3 (BatchNor (None, 300, 340, 48) 192         conv2d[0][0]

concatenate (Concatenate)       (None, 300, 340, 48) 0           separable_conv2d_1[0][0]
separable_conv2d_3[0][0]
separable_conv2d_5[0][0]

add (Add)                       (None, 300, 340, 48) 0           batch_normalization_3[0][0]
concatenate[0][0]

spatial_dropout2d (SpatialDropo (None, 300, 340, 48) 0           add[0][0]

batch_normalization_4 (BatchNor (None, 300, 340, 48) 192         spatial_dropout2d[0][0]

leaky_re_lu_3 (LeakyReLU)       (None, 300, 340, 48) 0           batch_normalization_4[0][0]

separable_conv2d_6 (SeparableCo (None, 300, 340, 16) 1216        leaky_re_lu_3[0][0]

separable_conv2d_8 (SeparableCo (None, 300, 340, 16) 1984        leaky_re_lu_3[0][0]

separable_conv2d_10 (SeparableC (None, 300, 340, 16) 3136        leaky_re_lu_3[0][0]

batch_normalization_5 (BatchNor (None, 300, 340, 16) 64          separable_conv2d_6[0][0]

batch_normalization_6 (BatchNor (None, 300, 340, 16) 64          separable_conv2d_8[0][0]

batch_normalization_7 (BatchNor (None, 300, 340, 16) 64          separable_conv2d_10[0][0]

leaky_re_lu_4 (LeakyReLU)       (None, 300, 340, 16) 0           batch_normalization_5[0][0]

leaky_re_lu_5 (LeakyReLU)       (None, 300, 340, 16) 0           batch_normalization_6[0][0]

leaky_re_lu_6 (LeakyReLU)       (None, 300, 340, 16) 0           batch_normalization_7[0][0]

conv2d_1 (Conv2D)               (None, 300, 340, 48) 2352        spatial_dropout2d[0][0]

separable_conv2d_7 (SeparableCo (None, 300, 340, 16) 416         leaky_re_lu_4[0][0]

separable_conv2d_9 (SeparableCo (None, 300, 340, 16) 672         leaky_re_lu_5[0][0]

separable_conv2d_11 (SeparableC (None, 300, 340, 16) 1056        leaky_re_lu_6[0][0]

batch_normalization_8 (BatchNor (None, 300, 340, 48) 192         conv2d_1[0][0]

concatenate_1 (Concatenate)     (None, 300, 340, 48) 0           separable_conv2d_7[0][0]
separable_conv2d_9[0][0]
separable_conv2d_11[0][0]

add_1 (Add)                     (None, 300, 340, 48) 0           batch_normalization_8[0][0]
concatenate_1[0][0]

spatial_dropout2d_1 (SpatialDro (None, 300, 340, 48) 0           add_1[0][0]

batch_normalization_9 (BatchNor (None, 300, 340, 48) 192         spatial_dropout2d_1[0][0]

leaky_re_lu_7 (LeakyReLU)       (None, 300, 340, 48) 0           batch_normalization_9[0][0]

separable_conv2d_12 (SeparableC (None, 300, 340, 2)  530         leaky_re_lu_7[0][0]

separable_conv2d_14 (SeparableC (None, 300, 340, 2)  1298        leaky_re_lu_7[0][0]

separable_conv2d_16 (SeparableC (None, 300, 340, 2)  2450        leaky_re_lu_7[0][0]

batch_normalization_10 (BatchNo (None, 300, 340, 2)  8           separable_conv2d_12[0][0]

batch_normalization_11 (BatchNo (None, 300, 340, 2)  8           separable_conv2d_14[0][0]

batch_normalization_12 (BatchNo (None, 300, 340, 2)  8           separable_conv2d_16[0][0]

conv2d_2 (Conv2D)               (None, 300, 340, 2)  98          spatial_dropout2d_1[0][0]

leaky_re_lu_8 (LeakyReLU)       (None, 300, 340, 2)  0           batch_normalization_10[0][0]

leaky_re_lu_9 (LeakyReLU)       (None, 300, 340, 2)  0           batch_normalization_11[0][0]

leaky_re_lu_10 (LeakyReLU)      (None, 300, 340, 2)  0           batch_normalization_12[0][0]

batch_normalization_13 (BatchNo (None, 300, 340, 2)  8           conv2d_2[0][0]

separable_conv2d_13 (SeparableC (None, 300, 340, 2)  24          leaky_re_lu_8[0][0]

separable_conv2d_15 (SeparableC (None, 300, 340, 2)  56          leaky_re_lu_9[0][0]

separable_conv2d_17 (SeparableC (None, 300, 340, 2)  104         leaky_re_lu_10[0][0]

add_2 (Add)                     (None, 300, 340, 2)  0           batch_normalization_13[0][0]
separable_conv2d_13[0][0]
separable_conv2d_15[0][0]
separable_conv2d_17[0][0]

leaky_re_lu_11 (LeakyReLU)      (None, 300, 340, 2)  0           add_2[0][0]

input_2 (InputLayer)            [(None, 300, 340, 1) 0

multiply (Multiply)             (None, 300, 340, 2)  0           leaky_re_lu_11[0][0]
input_2[0][0]

global_average_pooling2d (Globa (None, 2)            0           multiply[0][0]

softmax (Activation)            (None, 2)            0           global_average_pooling2d[0][0]

Total params: 27,587
Trainable params: 26,995
Non-trainable params: 592
and runs very nicely and very fast (for example, just 3 epochs), however with a warning for not being able to serialize as JSON and a second warning: Layers with arguments in __init__ must override get_config.
# TRAINING
epoch_num = 3
train_steps = len(train_generator)
val_steps = len(valid_generator)
…
139,kymatio/kymatio,https://github.com/kymatio/kymatio/issues/663,667,"So I keep getting intermittent test failures on GH Actions with the 2D FFT unit test:
=================================== FAILURES ===================================
____________________ TestFFT.test_fft[TensorFlowBackend2D] _____________________

self = <test_tensorflow_backend_2d.TestFFT object at 0x7f093716c9a0>
backend = <class 'kymatio.scattering2d.backend.tensorflow_backend.TensorFlowBackend2D'>

    @pytest.mark.parametrize('backend', backends)
    def test_fft(self, backend):
        x = np.random.randn(2, 2)
    
        y = np.array([[x[0, 0] + x[0, 1] + x[1, 0] + x[1, 1],
                       x[0, 0] - x[0, 1] + x[1, 0] - x[1, 1]],
                      [x[0, 0] + x[0, 1] - x[1, 0] - x[1, 1],
                       x[0, 0] - x[0, 1] - x[1, 0] + x[1, 1]]])
    
        z = backend.rfft(x)
>       assert np.allclose(y, z)
E       assert False
E        +  where False = <function allclose at 0x7f098b65b550>(array([[ 2.95330393e+00, -4.98718912e-01],\n       [-1.51491472e-03,  7.56337531e-01]]), <tf.Tensor: shape=(2, 2), dtype=complex64, numpy=\narray([[ 2.9533038e+00+0.j, -4.9871886e-01+0.j],\n       [-1.5148520e-03+0.j,  7.5633746e-01+0.j]], dtype=complex64)>)
…
